tmva/sofie/test/input_models/Concat_axis0.onnx (onnx, 749 bytes, 2 tensors)

fc1.weight f4 [12, 6]
0	0xbeb4bfca	-0.35302573
1	0x3ce7fbf8	0.02831839
2	0x3e151bb1	0.14561345
3	0xbdba3c0f	-0.090934865
4	0x3e4bd55c	0.19905609
5	0x3e66b874	0.22531301
6	0xbd568132	-0.052369304
7	0xbe082946	-0.13296995
8	0x3eb098a8	0.34491467
9	0x3dc06dfd	0.093959786
10	0x3e569d3c	0.20958418
11	0x3e1e4dd0	0.1545937
12	0xbe0aeab4	-0.13566095
13	0xbeb63e7e	-0.35594553
14	0xbee0d2c4	-0.439108
15	0xbe7a2527	-0.24428235
16	0x3e5d5ff0	0.21618629
17	0x3ef5ed15	0.48032442
18	0xbde99077	-0.114045076
19	0xbdb67052	-0.08908142
20	0xbea218ec	-0.3165964
21	0xbca8229b	-0.020524314
22	0x3eb1898a	0.34675246
23	0x3efcb677	0.4935796
24	0xbe9f5c0a	-0.31124908
25	0xbf0bf675	-0.5467294
26	0xbe109bf0	-0.14121985
27	0x3e08ea97	0.13370739
28	0x3ebcdf66	0.3688919
29	0x3e055089	0.13019003
30	0x3ddddfbf	0.10833692
31	0x3e22cc80	0.15898323
32	0x3e4970da	0.19671956
33	0x3e867322	0.26259714
34	0xbe95fad2	-0.29292923
35	0xbe452fbc	-0.1925649
36	0xbe5e38c4	-0.21701342
37	0xbc865ee5	-0.016402671
38	0x3ea9beb1	0.33153298
39	0xbe17467f	-0.14772986
40	0x3ee4e1c5	0.44703498
41	0xbd8616a0	-0.06547284
42	0xbe03f8da	-0.12887898
43	0xbd7e42e5	-0.062075514
44	0x3eb7cb17	0.35897133
45	0xbe612336	-0.21986088
46	0x3ea5b753	0.32366428
47	0x3dfbed04	0.123010665
48	0x3e79faa0	0.24412012
49	0x3cfa3f6f	0.030547826
50	0xbd07634d	-0.033053685
51	0xbd6b0eb4	-0.05738707
52	0xbe687487	-0.22700702
53	0x3ead9496	0.33902425
54	0x3e957270	0.2918887
55	0x3cee0a22	0.029057566
56	0x3e0f4c00	0.13993835
57	0xbe1f8a8d	-0.15580197
58	0xbe3e664e	-0.18593714
59	0x3e72592e	0.23666832
60	0xbe0e7d53	-0.13914995
61	0x3e0648b8	0.13113678
62	0xbe541677	-0.20711695
63	0xbea3c4c6	-0.31986064
64	0xbe82306f	-0.25427577
65	0xbed3795a	-0.4130352
66	0xbed76464	-0.4206878
67	0x3e27a26f	0.16370557
68	0x3df420f9	0.119203515
69	0xbd62bb81	-0.0553546
70	0xbc81f7e5	-0.015865276
71	0x3e0e3a7b	0.13889496

fc1.bias f4 [12]
0	0x3dc2b615	0.09507386
1	0x3ae6fe09	0.0017623316
2	0xbf25def3	-0.6479332
3	0xbf6a1ed6	-0.914533
4	0xbee7bb2c	-0.45259988
5	0x3dc2e678	0.09516615
6	0xbdf80c85	-0.12111763
7	0x3d79f1b7	0.061021533
8	0xbe905c71	-0.28195527
9	0xbdbc5a09	-0.0919686
10	0x3e965239	0.29359606
11	0xbf1e3bb2	-0.6180984
