tmva/sofie/test/input_models/LinearWithSigmoid.onnx (onnx, 1635 bytes, 4 tensors)

0.weight f4 [8, 24]
-0.34247965 0.18439154 0.07266464 0.06508542 0.32346743 -0.035075303 -0.04225399 -0.19379266
0.13047008 0.001178226 0.040082224 -0.10317333 -0.025202287 0.1687019 -0.10851486 -0.057661522
-0.14134964 0.2265601 -0.14800711 -0.056543753 -0.21645458 0.18740326 0.108191065 -0.19012438
0.01732619 -0.03602576 -0.21962655 0.05751027 -0.16700795 -0.005684085 0.022371579 -0.109041914
0.12074517 -0.13910031 0.042488437 0.16835637 -0.22821814 -0.035561815 -0.0048155393 -0.11304067
0.36381662 -0.08828824 0.15647563 -0.034562007 -0.15800849 0.024775006 -0.06042876 -0.029444054
-0.118940234 0.19411021 -0.008617948 0.11497617 0.1638633 -0.14369975 -0.027575841 0.1686598
0.17845233 0.06965074 0.038256302 -0.16054793 -0.02846717 -0.14821626 0.19423111 0.24917357
0.068035066 -0.04239229 0.053904224 -0.1662879 0.07795284 -0.099645264 -0.118812986 0.17055784
-0.24182664 -0.095386446 0.30642414 0.015239581 0.18895444 -0.09584541 0.21740566 0.007885651
0.120992616 0.14370751 0.033200953 -0.08041709 -0.07991358 -0.08106437 -0.20232607 0.17423305
-0.110530615 -0.045211926 0.046422653 0.28907186 -0.08560147 -0.07070354 -0.15461689 -0.098248124
-0.22900085 -0.13824104 -0.028585836 -0.14811262 0.13482246 0.21086028 -0.029765718 -0.31072667
0.14083971 0.14944085 0.24514496 -0.02650166 -0.13341725 -0.12430878 0.045263972 0.2781775
-0.062009323 0.10598633 0.13756776 0.2951215 -0.061561532 0.23867987 -0.14176735 -0.049203467
-0.05286203 0.04043234 0.32429388 -0.092998505 0.22133017 0.2160399 0.043281265 -0.23366833
-0.06918875 -0.057369046 0.024463778 0.059020355 0.056605253 0.15354027 -0.18397844 -0.07341321
-0.3213343 -0.1655265 -0.096615165 0.11185568 -0.078286685 0.19812082 -0.09226812 -0.18384929
-0.22857012 0.1623197 0.19649713 -0.12367761 0.2223436 -0.108388096 0.25551903 0.0023884817
0.08184769 0.19324058 -0.01813063 -0.061664287 0.12541467 0.03863384 -0.17511329 -0.16636615
-0.072699234 0.106528014 -0.22745769 0.13944542 -0.13481563 0.10474817 0.09620248 0.14224678
-0.16737464 -0.0067305015 0.12769295 -0.0738392 0.069970965 -0.0072809923 -0.11601597 -0.05422409
0.15424356 -0.14586973 -0.041519213 -0.03271691 0.005357714 0.104545444 -0.121851444 -0.14056164
0.15311657 -0.15228523 -0.05949375 -0.0025372528 -0.020772193 0.19602855 -0.20277743 -0.20760219
00000000: 7e59 afbe 23d1 3c3e 33d1 943d 814b 853d
00000010: 869d a53e 1fab 0fbd 8512 2dbd 9571 46be
00000020: f399 053e b46e 9a3a 422d 243d 8a4c d3bd
00000030: 0775 cebc 31c0 2c3e 0a3d debd 7d2e 6cbd
00000040: f6bd 10be 5fff 673e 2d8f 17be 6c9a 67bd
00000050: 45a6 5dbe a4e6 3f3e 4793 dd3d f7af 42be
00000060: a7ef 8d3c bf8f 13bd c8e5 60be e48f 6b3d
00000070: 2204 2bbe 9041 babb 9a44 b73c 5e51 dfbd
00000080: 3e49 f73d 5070 0ebe 5b08 2e3d 9d65 2c3e
00000090: 04b2 69be 44a9 11bd accb 9dbb de81 e7bd
000000a0: 2c46 ba3e 77d0 b4bd 263b 203e e490 0dbd
000000b0: facc 21be f4f4 ca3c 2684 77bd a834 f1bc
000000c0: f096 f3bd d4c4 463e 4b32 0dbc a078 eb3d
000000d0: c8cb 273e 0726 13be bbe6 e1bc 28b5 2c3e
000000e0: 35bc 363e 0ca5 8e3d a4b2 1c3d ad66 24be
000000f0: fc33 e9bc 01c6 17be 85e4 463e 5b27 7f3e
00000100: f855 8b3d 8aa3 2dbd adca 5c3d 6047 2abe
00000110: bda5 9f3d d112 ccbd 3954 f3bd b7a6 2e3e
00000120: 67a1 77be f859 c3bd a0e3 9c3e 6faf 793c
00000130: 467d 413e 994a c4bd 979f 5e3e d132 013c
00000140: faca f73d 1028 133e b9fd 073d b7b1 a4bd
00000150: bba9 a3bd 1405 a6bd 912e 4fbe 266a 323e
00000160: e05d e2bd 2430 39bd ae25 3e3d 3a01 943e
00000170: d34f afbd 05cd 90bd e453 1ebe 5036 c9bd
00000180: 337f 6abe 0f8f 0dbe d82c eabc d6aa 17be
00000190: e60e 0a3e c2eb 573e 3cd7 f3bc 9117 9fbe
000001a0: 4938 103e 0607 193e 4807 7b3e 021a d9bc
000001b0: 889e 08be 9a95 febd b766 393d 486d 8e3e
000001c0: 7dfd 7dbd 5c0f d93d 90de 0c3e 2a1a 973e
000001d0: f227 7cbd 7f68 743e 762b 11be 9389 49bd
000001e0: db85 58bd 629c 253d d909 a63e 0076 bebd
000001f0: 60a4 623e 9039 5d3e b247 313d c046 6fbe
00000200: d5b2 8dbd cefb 6abd 4368 c83c 54bf 713d
00000210: e9da 673d a939 1d3e d864 3cbe aa59 96bd
00000220: ee85 a4be c77f 29be 2cde c5bd 9714 e53d
00000230: c554 a0bd 2fe0 4a3e 11f7 bcbd fd42 3cbe
00000240: 490e 6abe 2337 263e 8b36 493e b04a fdbd
00000250: 0aae 633e 94fa ddbd 64d3 823e 1388 1c3b
00000260: c39f a73d dce0 453e b086 94bc b193 7cbd
00000270: b46c 003e 843e 1e3d e650 33be e35b 2abe
00000280: 56e3 94bd 5c2b da3d abea 68be c8ca 0e3e
00000290: 1c0d 0abe 3586 d63d ce05 c53d 24a9 113e
000002a0: 4264 2bbe 8a8b dcbb f1c1 023e 0239 97bd
000002b0: f04c 8f3d 6495 eebb c899 edbd 141a 5ebd
000002c0: 06f2 1d3e e05e 15be 0d10 2abd 2b02 06bd
000002d0: c38f af3b ec1b d63d 408d f9bd 64ef 0fbe
000002e0: 97ca 1c3e a9f0 1bbe b8af 73bd 0a48 26bb
000002f0: 722a aabc b5bb 483e e3a4 4fbe ab95 54be

0.bias f4 [8]
0.11701964 -0.058931507 0.11833081 0.13369727 -0.08772247 0.16479123 0.056155596 0.059780676
00000000: fea7 ef3d 2a62 71bd 6c57 f23d f0e7 083e
00000010: d7a7 b3bd 08bf 283e 6903 663d 95dc 743d

2.weight f4 [12, 8]
0.061352212 0.026428964 0.07828505 0.01946567 -0.2476849 -0.32736596 -0.020258704 0.2574567
-0.03851711 0.33515206 -0.19809279 0.2929198 -0.17386496 0.42160434 -0.011474916 0.4800651
0.16808365 0.31452787 0.22309303 0.36588973 0.14554796 0.27147755 0.41094914 -0.07144368
-0.38943863 -0.033093832 -0.30114788 -0.19433261 -0.37793237 -0.48534402 -0.3017465 -0.078343965
-0.08220289 -0.14346692 -0.034561202 -0.39765555 -0.44228014 -0.56744075 -0.5460756 -0.49407867
-6.222112e-05 0.17479123 0.15799299 -0.23189919 -0.32250553 -0.53095025 -0.026152508 0.036501825
-0.19962396 -0.27517787 -0.15133515 -0.11773134 0.31678608 0.21527764 -0.01379893 -0.09800377
-0.41900814 0.16861448 -0.29056364 -0.32803288 -0.008346975 -0.48321113 0.082518145 -0.25050235
-0.31693614 0.057626102 0.18290614 -0.47528774 -0.53413165 -0.19906615 -0.5895512 -0.4163685
-0.6976862 0.17227271 -0.16201766 -0.51004565 -0.4488484 -0.39768946 -0.25817037 -0.21512826
-0.26832312 0.07412093 -0.21996185 -0.60263366 -0.5813029 -0.3805025 -0.43734622 0.03149289
-0.31376418 -0.26488626 -0.13745703 0.06438421 0.118904166 -0.285054 -0.16227856 -0.111431554
00000000: 754c 7b3d 8e81 d83c ea53 a03d 7876 9f3c
00000010: 1ca1 7dbe 839c a7be 95f5 a5bc 5dd1 833e
00000020: 1ec4 1dbd 0d99 ab3e d6d8 4abe 96f9 953e
00000030: a809 32be 86dc d73e 4901 3cbc 18cb f53e
00000040: 1f1e 2c3e cc09 a13e 8072 643e e655 bb3e
00000050: 860a 153e 1bff 8a3e ed67 d23e 1051 92bd
00000060: 8064 c7be 668d 07bd 0e30 9abe 21ff 46be
00000070: 5a80 c1be 037f f8be 847e 9abe cd72 a0bd
00000080: fd59 a8bd fee8 12be 0c90 0dbd 8299 cbbe
00000090: 8b72 e2be cc43 11bf 9ccb 0bbf e1f7 fcbe
000000a0: b67c 82b8 79fc 323e eac8 213e fb76 6dbe
000000b0: 721f a5be 5bec 07bf c93d d6bc f082 153d
000000c0: 396a 4cbe 1de4 8cbe 9af7 1abe 211d f1bd
000000d0: c931 a23e be71 5c3e e814 62bc 33b6 c8bd
000000e0: 3c88 d6be 46a9 2c3e c2c4 94be edf3 a7be
000000f0: c0c1 08bc 7367 f7be 46ff a83d d841 80be
00000100: 7445 a2be 5909 6c3d bf4b 3b3e ea58 f3be
00000110: dabc 08bf ffd7 4bbe d4ec 16bf 412e d5be
00000120: 909b 32bf 4268 303e f5e7 25be 5a92 02bf
00000130: 75cf e5be f49d cbbe e82e 84be 954a 5cbe
00000140: a661 89be b7cc 973d ae3d 61be 3346 1abf
00000150: 44d0 14bf 39d1 c2be d8eb dfbe b0fe 003d
00000160: b3a5 a0be 2c9f 87be 89c1 0cbe dedb 833d
00000170: 0784 f33d 99f2 91be 5a2c 26be 3a36 e4bd

2.bias f4 [12]
0.06870245 -0.015492146 0.46931854 -0.48151967 -0.2302872 -0.24661526 -0.22366689 -0.6485911
-0.011641555 -0.80920964 -0.7377144 -0.17296408
00000000: dfb3 8c3d c5d2 7dbc 854a f03e bf89 f6be
00000010: 68d0 6bbe b688 7cbe ef08 65be 110a 26bf
00000020: 38bc 3ebc 5d28 4fbf dada 3cbf 7f1d 31be
