tmva/sofie/test/input_models/RNNSequenceBatchwise.onnx (onnx, 748 bytes, 4 tensors)

W f4 [1, 6, 5]
0	0x3e7295ea	0.2369
1	0x3e09d495	0.1346
2	0x3ea9d495	0.3317
3	0xbef6e2eb	-0.4822
4	0xbe0b923a	-0.1363
5	0x3f7126e9	0.942
6	0xbee6809d	-0.4502
7	0xc0345048	-2.8174
8	0x3e93eab3	0.2889
9	0x3fd5f3b6	1.6715
10	0x3e97e910	0.2967
11	0x3fd706f7	1.6799
12	0xbf5594af	-0.8343
13	0x3ee60aa6	0.4493
14	0x3d178d50	0.037
15	0xbf085879	-0.5326
16	0x3f93c6a8	1.1545
17	0xbfd2eb1c	-1.6478
18	0x3f472474	0.7779
19	0xbf6cfaad	-0.9257
20	0xbfbdb8bb	-1.4822
21	0xbf5f27bb	-0.8717
22	0xbc8e8a72	-0.0174
23	0x4004624e	2.0685
24	0xbf43126f	-0.762
25	0x3c2c0831	0.0105
26	0xc03c04ea	-2.9378
27	0x3f6381d8	0.8887
28	0xbf72a305	-0.9478
29	0xbfc947ae	-1.5725

R f4 [1, 6, 6]
0	0x3f81ba5e	1.0135
1	0xbe86c227	-0.2632
2	0xbf2db8bb	-0.6786
3	0xbf824a8c	-1.0179
4	0xc008710d	-2.1319
5	0xbb6bedfa	-0.0036
6	0x3ffab021	1.9585
7	0x3f91999a	1.1375
8	0x4007be77	2.121
9	0x3f241206	0.6409
10	0xc003381d	-2.0503
11	0xc01f7e91	-2.4921
12	0x3f17dbf5	0.5932
13	0x3fc20f91	1.5161
14	0xbf46e2eb	-0.7769
15	0x3e91de6a	0.2849
16	0x3e542c3d	0.2072
17	0xbe9e00d2	-0.3086
18	0xbf772b02	-0.9655
19	0x3f6af4f1	0.9178
20	0xbedbc01a	-0.4292
21	0xbfc0b0f2	-1.5054
22	0xbf3d566d	-0.7396
23	0x3f649518	0.8929
24	0xbe3c01a3	-0.1836
25	0xbfd089a0	-1.6292
26	0x3f891d15	1.0712
27	0x3ec10625	0.377
28	0x3e362b6b	0.1779
29	0xbf8ef007	-1.1167
30	0xbf2fa440	-0.6861
31	0x3f9e9ad4	1.2391
32	0xbf0b7803	-0.5448
33	0xbec6b50b	-0.3881
34	0xbf043958	-0.5165
35	0x3c51b717	0.0128

B f4 [1, 12]
0	0x00000000	0.0
1	0x00000000	0.0
2	0x00000000	0.0
3	0x00000000	0.0
4	0x00000000	0.0
5	0x00000000	0.0
6	0x00000000	0.0
7	0x00000000	0.0
8	0x00000000	0.0
9	0x00000000	0.0
10	0x00000000	0.0
11	0x00000000	0.0

sequence_lens f4 [3]
0	0x40400000	3.0
1	0x40000000	2.0
2	0x3f800000	1.0
